{"format": "torch", "nodes": [{"name": "reformer", "id": 139928573369592, "class_name": "ReformerModel(\n  (embeddings): ReformerEmbeddings(\n    (word_embeddings): Embedding(258, 1024)\n    (position_embeddings): AxialPositionEmbeddings(\n      (weights): ParameterList(\n          (0): Parameter containing: [torch.FloatTensor of size 128x1x256]\n          (1): Parameter containing: [torch.FloatTensor of size 1x512x768]\n      )\n    )\n  )\n  (encoder): ReformerEncoder(\n    (layers): ModuleList(\n      (0): ReformerLayer(\n        (attention): ReformerAttention(\n          (layer_norm): LayerNorm((1024,), eps=1e-12, elementwise_affine=True)\n          (self_attention): LocalSelfAttention(\n            (query): Linear(in_features=1024, out_features=1024, bias=False)\n            (key): Linear(in_features=1024, out_features=1024, bias=False)\n            (value): Linear(in_features=1024, out_features=1024, bias=False)\n          )\n          (output): ReformerSelfOutput(\n            (dense): Linear(in_features=1024, out_features=1024, bias=False)\n          )\n        )\n        (feed_forward): ChunkReformerFeedForward(\n          (layer_norm): LayerNorm((1024,), eps=1e-12, elementwise_affine=True)\n          (dense): ReformerFeedForwardDense(\n            (dense): Linear(in_features=1024, out_features=4096, bias=True)\n          )\n          (output): ReformerFeedForwardOutput(\n            (dense): Linear(in_features=4096, out_features=1024, bias=True)\n          )\n        )\n      )\n      (1): ReformerLayer(\n        (attention): ReformerAttention(\n          (layer_norm): LayerNorm((1024,), eps=1e-12, elementwise_affine=True)\n          (self_attention): LocalSelfAttention(\n            (query): Linear(in_features=1024, out_features=1024, bias=False)\n            (key): Linear(in_features=1024, out_features=1024, bias=False)\n            (value): Linear(in_features=1024, out_features=1024, bias=False)\n          )\n          (output): ReformerSelfOutput(\n            (dense): Linear(in_features=1024, out_features=1024, bias=False)\n          )\n        )\n        (feed_forward): ChunkReformerFeedForward(\n          (layer_norm): LayerNorm((1024,), eps=1e-12, elementwise_affine=True)\n          (dense): ReformerFeedForwardDense(\n            (dense): Linear(in_features=1024, out_features=4096, bias=True)\n          )\n          (output): ReformerFeedForwardOutput(\n            (dense): Linear(in_features=4096, out_features=1024, bias=True)\n          )\n        )\n      )\n      (2): ReformerLayer(\n        (attention): ReformerAttention(\n          (layer_norm): LayerNorm((1024,), eps=1e-12, elementwise_affine=True)\n          (self_attention): LSHSelfAttention(\n            (query_key): Linear(in_features=1024, out_features=1024, bias=False)\n            (value): Linear(in_features=1024, out_features=1024, bias=False)\n          )\n          (output): ReformerSelfOutput(\n            (dense): Linear(in_features=1024, out_features=1024, bias=False)\n          )\n        )\n        (feed_forward): ChunkReformerFeedForward(\n          (layer_norm): LayerNorm((1024,), eps=1e-12, elementwise_affine=True)\n          (dense): ReformerFeedForwardDense(\n            (dense): Linear(in_features=1024, out_features=4096, bias=True)\n          )\n          (output): ReformerFeedForwardOutput(\n            (dense): Linear(in_features=4096, out_features=1024, bias=True)\n          )\n        )\n      )\n      (3): ReformerLayer(\n        (attention): ReformerAttention(\n          (layer_norm): LayerNorm((1024,), eps=1e-12, elementwise_affine=True)\n          (self_attention): LocalSelfAttention(\n            (query): Linear(in_features=1024, out_features=1024, bias=False)\n            (key): Linear(in_features=1024, out_features=1024, bias=False)\n            (value): Linear(in_features=1024, out_features=1024, bias=False)\n          )\n          (output): ReformerSelfOutput(\n            (dense): Linear(in_features=1024, out_features=1024, bias=False)\n          )\n        )\n        (feed_forward): ChunkReformerFeedForward(\n          (layer_norm): LayerNorm((1024,), eps=1e-12, elementwise_affine=True)\n          (dense): ReformerFeedForwardDense(\n            (dense): Linear(in_features=1024, out_features=4096, bias=True)\n          )\n          (output): ReformerFeedForwardOutput(\n            (dense): Linear(in_features=4096, out_features=1024, bias=True)\n          )\n        )\n      )\n      (4): ReformerLayer(\n        (attention): ReformerAttention(\n          (layer_norm): LayerNorm((1024,), eps=1e-12, elementwise_affine=True)\n          (self_attention): LocalSelfAttention(\n            (query): Linear(in_features=1024, out_features=1024, bias=False)\n            (key): Linear(in_features=1024, out_features=1024, bias=False)\n            (value): Linear(in_features=1024, out_features=1024, bias=False)\n          )\n          (output): ReformerSelfOutput(\n            (dense): Linear(in_features=1024, out_features=1024, bias=False)\n          )\n        )\n        (feed_forward): ChunkReformerFeedForward(\n          (layer_norm): LayerNorm((1024,), eps=1e-12, elementwise_affine=True)\n          (dense): ReformerFeedForwardDense(\n            (dense): Linear(in_features=1024, out_features=4096, bias=True)\n          )\n          (output): ReformerFeedForwardOutput(\n            (dense): Linear(in_features=4096, out_features=1024, bias=True)\n          )\n        )\n      )\n      (5): ReformerLayer(\n        (attention): ReformerAttention(\n          (layer_norm): LayerNorm((1024,), eps=1e-12, elementwise_affine=True)\n          (self_attention): LocalSelfAttention(\n            (query): Linear(in_features=1024, out_features=1024, bias=False)\n            (key): Linear(in_features=1024, out_features=1024, bias=False)\n            (value): Linear(in_features=1024, out_features=1024, bias=False)\n          )\n          (output): ReformerSelfOutput(\n            (dense): Linear(in_features=1024, out_features=1024, bias=False)\n          )\n        )\n        (feed_forward): ChunkReformerFeedForward(\n          (layer_norm): LayerNorm((1024,), eps=1e-12, elementwise_affine=True)\n          (dense): ReformerFeedForwardDense(\n            (dense): Linear(in_features=1024, out_features=4096, bias=True)\n          )\n          (output): ReformerFeedForwardOutput(\n            (dense): Linear(in_features=4096, out_features=1024, bias=True)\n          )\n        )\n      )\n      (6): ReformerLayer(\n        (attention): ReformerAttention(\n          (layer_norm): LayerNorm((1024,), eps=1e-12, elementwise_affine=True)\n          (self_attention): LSHSelfAttention(\n            (query_key): Linear(in_features=1024, out_features=1024, bias=False)\n            (value): Linear(in_features=1024, out_features=1024, bias=False)\n          )\n          (output): ReformerSelfOutput(\n            (dense): Linear(in_features=1024, out_features=1024, bias=False)\n          )\n        )\n        (feed_forward): ChunkReformerFeedForward(\n          (layer_norm): LayerNorm((1024,), eps=1e-12, elementwise_affine=True)\n          (dense): ReformerFeedForwardDense(\n            (dense): Linear(in_features=1024, out_features=4096, bias=True)\n          )\n          (output): ReformerFeedForwardOutput(\n            (dense): Linear(in_features=4096, out_features=1024, bias=True)\n          )\n        )\n      )\n      (7): ReformerLayer(\n        (attention): ReformerAttention(\n          (layer_norm): LayerNorm((1024,), eps=1e-12, elementwise_affine=True)\n          (self_attention): LocalSelfAttention(\n            (query): Linear(in_features=1024, out_features=1024, bias=False)\n            (key): Linear(in_features=1024, out_features=1024, bias=False)\n            (value): Linear(in_features=1024, out_features=1024, bias=False)\n          )\n          (output): ReformerSelfOutput(\n            (dense): Linear(in_features=1024, out_features=1024, bias=False)\n          )\n        )\n        (feed_forward): ChunkReformerFeedForward(\n          (layer_norm): LayerNorm((1024,), eps=1e-12, elementwise_affine=True)\n          (dense): ReformerFeedForwardDense(\n            (dense): Linear(in_features=1024, out_features=4096, bias=True)\n          )\n          (output): ReformerFeedForwardOutput(\n            (dense): Linear(in_features=4096, out_features=1024, bias=True)\n          )\n        )\n      )\n      (8): ReformerLayer(\n        (attention): ReformerAttention(\n          (layer_norm): LayerNorm((1024,), eps=1e-12, elementwise_affine=True)\n          (self_attention): LocalSelfAttention(\n            (query): Linear(in_features=1024, out_features=1024, bias=False)\n            (key): Linear(in_features=1024, out_features=1024, bias=False)\n            (value): Linear(in_features=1024, out_features=1024, bias=False)\n          )\n          (output): ReformerSelfOutput(\n            (dense): Linear(in_features=1024, out_features=1024, bias=False)\n          )\n        )\n        (feed_forward): ChunkReformerFeedForward(\n          (layer_norm): LayerNorm((1024,), eps=1e-12, elementwise_affine=True)\n          (dense): ReformerFeedForwardDense(\n            (dense): Linear(in_features=1024, out_features=4096, bias=True)\n          )\n          (output): ReformerFeedForwardOutput(\n            (dense): Linear(in_features=4096, out_features=1024, bias=True)\n          )\n        )\n      )\n      (9): ReformerLayer(\n        (attention): ReformerAttention(\n          (layer_norm): LayerNorm((1024,), eps=1e-12, elementwise_affine=True)\n          (self_attention): LocalSelfAttention(\n            (query): Linear(in_features=1024, out_features=1024, bias=False)\n            (key): Linear(in_features=1024, out_features=1024, bias=False)\n            (value): Linear(in_features=1024, out_features=1024, bias=False)\n          )\n          (output): ReformerSelfOutput(\n            (dense): Linear(in_features=1024, out_features=1024, bias=False)\n          )\n        )\n        (feed_forward): ChunkReformerFeedForward(\n          (layer_norm): LayerNorm((1024,), eps=1e-12, elementwise_affine=True)\n          (dense): ReformerFeedForwardDense(\n            (dense): Linear(in_features=1024, out_features=4096, bias=True)\n          )\n          (output): ReformerFeedForwardOutput(\n            (dense): Linear(in_features=4096, out_features=1024, bias=True)\n          )\n        )\n      )\n      (10): ReformerLayer(\n        (attention): ReformerAttention(\n          (layer_norm): LayerNorm((1024,), eps=1e-12, elementwise_affine=True)\n          (self_attention): LSHSelfAttention(\n            (query_key): Linear(in_features=1024, out_features=1024, bias=False)\n            (value): Linear(in_features=1024, out_features=1024, bias=False)\n          )\n          (output): ReformerSelfOutput(\n            (dense): Linear(in_features=1024, out_features=1024, bias=False)\n          )\n        )\n        (feed_forward): ChunkReformerFeedForward(\n          (layer_norm): LayerNorm((1024,), eps=1e-12, elementwise_affine=True)\n          (dense): ReformerFeedForwardDense(\n            (dense): Linear(in_features=1024, out_features=4096, bias=True)\n          )\n          (output): ReformerFeedForwardOutput(\n            (dense): Linear(in_features=4096, out_features=1024, bias=True)\n          )\n        )\n      )\n      (11): ReformerLayer(\n        (attention): ReformerAttention(\n          (layer_norm): LayerNorm((1024,), eps=1e-12, elementwise_affine=True)\n          (self_attention): LocalSelfAttention(\n            (query): Linear(in_features=1024, out_features=1024, bias=False)\n            (key): Linear(in_features=1024, out_features=1024, bias=False)\n            (value): Linear(in_features=1024, out_features=1024, bias=False)\n          )\n          (output): ReformerSelfOutput(\n            (dense): Linear(in_features=1024, out_features=1024, bias=False)\n          )\n        )\n        (feed_forward): ChunkReformerFeedForward(\n          (layer_norm): LayerNorm((1024,), eps=1e-12, elementwise_affine=True)\n          (dense): ReformerFeedForwardDense(\n            (dense): Linear(in_features=1024, out_features=4096, bias=True)\n          )\n          (output): ReformerFeedForwardOutput(\n            (dense): Linear(in_features=4096, out_features=1024, bias=True)\n          )\n        )\n      )\n    )\n    (layer_norm): LayerNorm((2048,), eps=1e-12, elementwise_affine=True)\n  )\n)", "parameters": [["embeddings.word_embeddings.weight", [258, 1024]], ["embeddings.position_embeddings.weights.0", [128, 1, 256]], ["embeddings.position_embeddings.weights.1", [1, 512, 768]], ["encoder.layers.0.attention.layer_norm.weight", [1024]], ["encoder.layers.0.attention.layer_norm.bias", [1024]], ["encoder.layers.0.attention.self_attentio
…
